server/data.pth (torch, 4842 bytes, 6 tensors)

l1.weight f4 [8, 42]
00000000: a55d 1ebe 9ef1 08be f9d7 41be d8f2 1c3f
00000010: 45bb 8e3e 2e4a 4c3f ac42 f7be b067 e13e
00000020: 762d 3e3f 9042 f03e 83c9 463f 4623 af3e
00000030: 44d0 1d3f 5cce 3d3f d6a7 04bf c92a 19be
00000040: d085 a93e 7689 f8be dc56 003f 407f cabd
00000050: 1732 bd3e 4ce0 dc3e 766f 153f 51d9 e83e
00000060: 9e18 913e 4430 a4be 2cac 0fbe 950e 0f3f
00000070: 4769 063d a47f 253f 9e97 9f3e 6909 a03e
00000080: 260f 50be e3ea 383f 9682 cebd e209 dbbe
00000090: f340 4fbe d1b4 923e a84c 5bbd 46de e43d
000000a0: 24a0 0e3f 72e1 243d 73b2 68be 8177 5a3d
000000b0: b229 19be 3cfe 823d d958 3a3e 3654 c93e
000000c0: 93d1 04bf f637 493e e081 e83c abef 90be
000000d0: c220 14be c364 0a3f 216d 533d f890 0b3f
000000e0: 41fe 10bf 5639 5dbe 736a f13e 12f8 04bf
000000f0: 59c9 1f3f cad9 48be daa9 f13e db5e 2a3f
00000100: f186 e73e bede 203e 08b9 4a3e 3466 ccbe
00000110: 759b e6bd d62f de3d db89 efbd b66e 1fbe
00000120: f35a 113e 6145 083e 8d21 0abe 005a 163d
00000130: e5f7 bcbb 757a 04bf c302 bcbd d539 a53e
00000140: 7d68 913d 59b8 c9bd fdff 003e 8570 793c
00000150: 7325 863e 0c1f dd3e 9544 1a3f ac48 d63e
00000160: c71e 3d3c ee65 d73e b0f7 25bf 1f66 fd3c
00000170: e78e 143f c7d5 0b3f 8778 083f 5242 9d3e
00000180: c89e 1e3f 3e92 523f aeb5 183f e141 ee3e
00000190: 8cf0 513e 7a33 26bf 0ff7 a83e 8ded 0b3e
000001a0: 5fba af3e b7a7 843e aaf0 8b3d 340f 58be
000001b0: 130d 7d3f d59a d0be 5780 073f 315b ef3e
000001c0: b076 133f def3 f53e 06a0 51be 276a fbbd
000001d0: ea89 bebe 2168 153f 7768 fb3e 9f40 ed3e
000001e0: 9633 c63e 7a6e 3f3e 451a 253f 3250 583f
000001f0: 19e2 26be fd37 e43d 6a5d 08be 0cdb 7c3d
00000200: 050c 33bd e8a9 b53e c89c b13e 01e7 ae3e
00000210: a595 25bf 322c d13e b481 643e 459d 433e
00000220: 58f1 683e dc79 543e 6d97 513e 9bd1 2e3f
00000230: 5180 1ebf 512b 173e d587 313e 2e8f 25bf
00000240: dcce e93e 6769 41be 91b5 183f 50e5 ba3e
00000250: 5757 0c3f 6e2f d13e c7b0 813e 76b5 a5be
00000260: bc1f 13bd 8e37 9c3e 36ed 003d 0302 50bd
00000270: 3ca3 a63e 8210 a03e 7d6b fdbe fae7 073e
00000280: aab6 37bd 4b67 2cbf b40a 4dbe 9028 563e
00000290: d9b5 a73d 8140 3a3e 5e04 b33e 6723 163e
000002a0: b1ba 3abe 1761 57bc 2e63 63be 02f9 31bd
000002b0: 2d6f 053f 38c2 a43e 1e91 67be d5ff a03e
000002c0: a05f 00be 6cf7 65be ae42 46bc 06e8 a03e
000002d0: 21a8 babd c937 1f3e 2683 cfbe 9e6e 0cbe
000002e0: cacf 983e fe84 50be 4f89 103f 6464 4bbe
000002f0: cad7 0f3f 9829 023f 3b33 d03e 521d 403e
00000300: 963f 3d3e b248 3dbe b339 043d 1f52 f1bd
00000310: c93d 1abd 9cc4 a8be d1cb 273e 96c4 ac3e
00000320: 8d6a 793d 1492 0d3d b72a 29be 1e0d 2dbf
00000330: 45ec 92be 1b45 5f3e 8231 dabd 8424 e5be
00000340: b09a 923e f2a6 173c 5881 443f 9d7b 013f
00000350: c335 ebbd ec86 1f3f e0b5 a0be e375 073e
00000360: d47b 6abe cd80 113f 957b b03e 2c8d 273f
00000370: 5881 473e 37f8 3dbe 4d64 093f 8282 fe3e
00000380: 020d 9abd 37dc d5bd da0b adbe 202b 5cbe
00000390: 5c06 06bf b2b2 513f 5808 06bf b901 06bf
000003a0: bcd0 efbe f0a3 093f 4b40 1cbe 691b bebe
000003b0: 13d7 b13e a2bc 1f3f bff9 db3a feca 253f
000003c0: 128d c13e 448c ba3e 9577 dabe c267 7d3e
000003d0: ff46 103d 80c7 683f 5d38 2d3f 20f6 75bd
000003e0: 0fc0 b0bd b923 dcbd 4602 113f f931 1f3f
000003f0: 9493 2d3f bab6 f23e 199a 6fbd 7e6b b83e
-0.1546541 -0.1337342 -0.18930043 0.6130805 0.2787725 0.7980069 -0.48293054 0.4402442
0.7428812 0.46925783 0.7765123 0.342066 0.61645913 0.74143004 -0.518186 -0.14957727
0.33109903 -0.48542374 0.50132537 -0.09887552 0.36952278 0.43139875 0.583732 0.454783
0.28339094 -0.32068074 -0.14030522 0.55881625 0.032815244 0.6464789 0.31170362 0.3125718
-0.20318279 0.7223341 -0.10083501 -0.42780977 -0.2023962 0.28653577 -0.053539902 0.11175208
0.55713105 0.040254064 -0.22724323 0.053336624 -0.14957312 0.063961476 0.18197955 0.3932206
-0.51882285 0.19650254 0.028382242 -0.28307852 -0.14465621 0.5406 0.051617745 0.5451808
-0.5663796 -0.21603903 0.47151527 -0.51941025 0.6241661 -0.1961433 0.471999 0.6655099
0.4522014 0.1570997 0.19797146 -0.39921725 -0.1126012 0.10848968 -0.11696216 -0.15569577
0.1419485 0.13307716 -0.13489361 0.036706924 -0.005766856 -0.51749355 -0.09180214 0.32270685
0.07100008 -0.09849615 0.12597652 0.015224581 0.26200446 0.4318775 0.602609 0.4185232
0.011542982 0.42069954 -0.64831066 0.030932484 0.5803055 0.54623073 0.5330891 0.3071466
0.6196103 0.822544 0.5965222 0.46534637 0.20501918 -0.64922297 0.3300099 0.13664837
0.34321877 0.25909206 0.068330124 -0.2109955 0.98848075 -0.40743127 0.52930206 0.4674926
0.5760298 0.48037618 -0.204712 -0.12276106 -0.37214595 0.58362013 0.49103138 0.46338364
0.38711232 0.18694487 0.6449321 0.8449737 -0.16297187 0.111434914 -0.13316885 0.061732337
-0.043712635 0.3548119 0.34689927 0.34160617 -0.64681464 0.4085403 0.22315103 0.19102962
0.22748315 0.2074961 0.2046792 0.6828858 -0.61914545 0.14762618 0.17336972 -0.646716
0.45665634 -0.18887864 0.5965205 0.36503077 0.5482077 0.40856498 0.25330183 -0.32365006
-0.035918936 0.30511135 0.031476222 -0.05078317 0.32546413 0.31262594 -0.4949607 0.13272086
-0.044851936 -0.6734511 -0.20023614 0.20913911 0.081889816 0.18188669 0.3496427 0.14661942
-0.1823528 -0.013145707 -0.22205803 -0.043450363 0.52122766 0.32179427 -0.22613952 0.31445184
-0.12536478 -0.22457665 -0.012100859 0.3142702 -0.09114099 0.15548624 -0.40529746 -0.13714072
0.2984603 -0.20363232 0.56459516 -0.19862515 0.5618864 0.5084472 0.40664086 0.18761185
0.18481287 -0.18484762 0.03228159 -0.117832415 -0.03765658 -0.329625 0.16386344 0.33743733
0.06089263 0.03456314 -0.165202 -0.6759814 -0.28695884 0.21803705 -0.10653974 -0.44754422
0.28633642 0.009256111 0.7675986 0.50579244 -0.114848636 0.6231525 -0.3138876 0.13228564
-0.22898799 0.5683716 0.34469286 0.65449786 0.19482934 -0.18551718 0.5366867 0.49708945
-0.07522012 -0.10442393 -0.33798105 -0.21500826 -0.52353454 0.8191329 -0.5235648 -0.5234638
-0.4683894 0.53765774 -0.15258901 -0.37130287 0.347344 0.62397206 0.0016782804 0.64762866
0.3780294 0.3643514 -0.4266936 0.24746612 0.035223957 0.9092941 0.6766413 -0.060049176
-0.08630382 -0.10749001 0.56644094 0.6218563 0.6780331 0.47405034 -0.05849657 0.3601951

l1.bias f4 [8]
00000000: 1cee f63e 309e 043f 399b 2a3f 9f7f 253f
00000010: 5303 2b3f 41f9 053f 4723 763f aedf 8e3f
0.48228538 0.51803875 0.666431 0.6464786 0.6680195 0.52333456 0.9614758 1.1162012

l2.weight f4 [8, 8]
00000000: 01e1 9b3f df02 613f 3ef4 5d3b b213 973f
00000010: 5fcb 8c3f e053 d83e bcaa 1f3f 1db4 21bf
00000020: 2de5 393f cdb5 653f 3198 703f 1912 6f3f
00000030: f167 633f 8fc0 89bf 2b21 8bbe d883 5abf
00000040: 3b2b 39bf 08cd 42bf 3827 343f 207d 07bf
00000050: 673d 91bf d04a cf3f fcdc cc3f 4e3e cc3f
00000060: 847c 213e 0829 88be a71b 92be 004c 743c
00000070: 1e69 613e 26e8 0a3d 52a4 c0bb bf58 96be
00000080: fe22 b23d ecd0 3bbd 959d 13be 871e 3abe
00000090: 21ac 8abe 3958 753e c58d 01be 7eab d7bd
000000a0: 6704 313e ff48 a0bd b3aa a73f 7ff8 163f
000000b0: 5167 c2bf 12af 443f db0a 6fbe 3ad7 153f
000000c0: 250b 293f 3fb5 0f3e 65a9 ad3f 3ae8 093f
000000d0: e7a8 39bf 25a7 5d3f 5040 bebf bb9b dabc
000000e0: 275c 3ebe 0bf7 b03e f4a5 b7bd d59d 86be
000000f0: 70ba 0cbe be13 68be 1149 50be 8421 803d
1.2178041 0.87895006 0.0033867504 1.1802886 1.0999564 0.42251492 0.62369895 -0.63165456
0.7261532 0.8973053 0.93982226 0.9338699 0.88830477 -1.0761889 -0.27173743 -0.8535743
-0.7233159 -0.760941 0.70372343 -0.529253 -1.1346864 1.6194706 1.6004939 1.5956514
0.15770155 -0.26593804 -0.28536722 0.014910698 0.22012755 0.0339128 -0.0058789635 -0.29364583
0.086980805 -0.04585354 -0.14415582 -0.18175708 -0.2708445 0.23959436 -0.12651737 -0.105307564
0.17286836 -0.07826423 1.3098968 0.58972925 -1.518778 0.76829636 -0.23343985 0.58531535
0.6603263 0.14033984 1.356732 0.53869975 -0.7252335 0.8658317 -1.4863377 -0.026685586
-0.18589841 0.3456348 -0.089672 -0.2629229 -0.13742995 -0.22663781 -0.20340373 0.062563926

l2.bias f4 [8]
00000000: 83dd bfbe 500f fe3d f213 273f c6aa 6fbe
00000010: 6c0d 15be 21e6 503c fa57 733e 6ef0 9dbe
-0.37473688 0.124052644 0.6526481 -0.23404989 -0.14555901 0.0127501795 0.23764029 -0.30847496

l3.weight f4 [6, 8]
00000000: 98ed c5bf c11a 083d 4cec 1cbe ca55 82be
00000010: 8bb1 3cbc 0944 1f3e 6b59 183f 485f 7fbd
00000020: 4d7b d13c bc6f 1a3e 3870 8dbf 771d 09bd
00000030: 13ec 9f3e 85f8 55be 33c1 123f 890e aa3e
00000040: bb78 9fbf 1c6f 3abf 5af4 783f 07e0 963e
00000050: bb2b f4bc c971 1ec0 2f99 6dbf 565c 7e3e
00000060: 7c9f 593f bf15 193f 8fda 93bf 5a2a 873e
00000070: 6ae0 08bd f0a6 c7bf fb08 f5be a197 b4be
00000080: 19b9 983e f248 a5bf 9c4a 533d 54aa 0abe
00000090: adfa 68be 56c1 2bbe 6f59 213e 0e83 703e
000000a0: 6ad8 9ebf 6903 36bf 739d 4e3f d9c7 8c3e
000000b0: 0336 c13d 7215 94be bba0 98bf fe0f 323e
-1.5463133 0.03322864 -0.15324515 -0.25456077 -0.011516939 0.15553297 0.5951144 -0.062346727
0.02557149 0.15081686 -1.1049871 -0.033475365 0.31234798 -0.20895584 0.5732605 0.33214214
-1.2458719 -0.7282579 0.9724785 0.29467794 -0.029806009 -2.475695 -0.92811865 0.24839911
0.8500898 0.59798807 -1.1551074 0.263995 -0.033417143 -1.559782 -0.47858414 -0.35271934
0.29828718 -1.2912886 0.051584825 -0.13541538 -0.22751875 -0.1677297 0.15756772 0.23487493
-1.2409794 -0.71098953 0.80709 0.27496222 0.0943413 -0.2892261 -1.1924051 0.17388913

l3.bias f4 [6]
00000000: a87e d4be d83b 67bf 8c6b c03f bbf9 8abe
00000010: 9713 0bbf 353b febe
-0.4150288 -0.9032569 1.5032821 -0.27143654 -0.54326767 -0.49654546
